module3/third/model_weights.pt (torch, 816665 bytes, 4 tensors)

1.weight f4 [256, 784]
0	0xbc1f40dc	-0.0097200535
1	0xbc95c94c	-0.018284462
2	0x3c552140	0.013008416
3	0x3cabf4a6	0.02099068
4	0xbb06b9b0	-0.0020557456
5	0xbce9e36a	-0.028550822
6	0xbcd8e3f5	-0.026475886
7	0x3b34e600	0.002760291
8	0xba4558c0	-0.00075281784
9	0x3b2ca460	0.0026343092
10	0xbd085b35	-0.033290107
11	0x3cfbf9b6	0.03075872
12	0xbd050bb4	-0.032481864
13	0xbcbf863d	-0.02337944
14	0xbcba7447	-0.022760523
15	0xbd3d3fa8	-0.046203285
16	0xbd03420c	-0.03204541
17	0xbba40ab8	-0.0050061606
18	0x3c09c498	0.008408688
19	0xbced323c	-0.028954618
20	0x3b9f0900	0.004853368
21	0xbd06a024	-0.032867566
22	0xbb556f60	-0.0032567605
23	0xbc4dcee6	-0.012561535
24	0x3a6a95c0	0.0008948706
25	0xbcd5f80a	-0.02611925
26	0x3c072428	0.008248366
27	0x3ce20b26	0.027593207
28	0xbcbd6355	-0.023118654
29	0x3cae60e6	0.02128644
30	0x3cb41e3a	0.02198707
31	0xbc2636ca	-0.010144899
32	0xbcb52b90	-0.022115499
33	0x3c1b914f	0.0094950935
34	0xbd589aff	-0.05288219
35	0xbd97c7da	-0.074111655
36	0xbd4b3014	-0.049606398
37	0xbcfb665a	-0.030688453
38	0xbda5199b	-0.080615245
39	0x3c4a53d0	0.012349084
40	0xbcc61bbc	-0.024183147
41	0xbd80c0dd	-0.06286786
42	0x3d6e400c	0.05816655
43	0xbedde2b9	-0.43337038
44	0xbeb0b8a6	-0.34515876
45	0xbe5d294b	-0.21597783
46	0xbe0a65eb	-0.13515441
47	0xbdf44b1f	-0.11928391
48	0xbe15e3d6	-0.14637694
49	0xbda17511	-0.07883657
50	0xbd121456	-0.035663925
51	0xbd37e620	-0.0448972
52	0xbc185cee	-0.0092995
53	0xbd1020b4	-0.035187438
54	0x3ace08c0	0.001571916
55	0x3ce66efa	0.02812909
56	0x3d102fff	0.035202023
57	0xbc5b57ca	-0.01338763
58	0xbca138ea	-0.019680459
59	0xbe3aacf4	-0.18230039
60	0xbe64b17f	-0.22333334
61	0xbd77e8f4	-0.060524896
62	0xbd6fb506	-0.058522247
63	0xbdc1c8a7	-0.094620995
64	0xbe8c8c22	-0.27450663
65	0xbe866140	-0.2624607
66	0xbeae066e	-0.3398928
67	0xbebf65e7	-0.37382433
68	0xbd3a2b10	-0.045451224
69	0x3d48cb7a	0.049022175
70	0xbc899354	-0.016793884
71	0xbe314a8c	-0.17313594
72	0xbeb7d70b	-0.35906252
73	0xbef8491c	-0.48493278
74	0xbed5e935	-0.41779485
75	0xbe6cfb6d	-0.23142786
76	0xbe8777ca	-0.2645858
77	0xbe94bdb3	-0.2905098
78	0xbe9bfaec	-0.30464876
79	0xbe5ba98c	-0.21451396
80	0xbe17c152	-0.1481984
81	0x3d09bffc	0.033630356
82	0x3cdb1428	0.02674301
83	0x3cf40e12	0.029791865
84	0xbbd3bcf0	-0.006461732
85	0xbb7b1300	-0.0038310885
86	0xbb7a739f	-0.0038215888
87	0xbdf7bfe2	-0.120971456
88	0x3dfb452b	0.12269052
89	0xbe0134d0	-0.12617803
90	0xbe432505	-0.1905709
91	0xbe1d0a69	-0.15336002
92	0xbdbaa2da	-0.09113093
93	0x3d57570c	0.05257325
94	0xbd69a0af	-0.057038005
95	0xbe57d12f	-0.21075891
96	0xbe59cb79	-0.21269025
97	0xbd54463b	-0.05182479
98	0xbdc7b8fb	-0.09752079
99	0xbe1a6532	-0.15077665
100	0x3c8b8dfc	0.017035477
101	0xbd4ca2a5	-0.049959797
102	0xbe4ac728	-0.19802535
103	0xbe3f04f9	-0.1865424
104	0x3daabdd2	0.083369866
105	0x3ddb37f0	0.107040286
106	0xbc4496b4	-0.011998821
107	0xbdaff568	-0.085917294
108	0xbc6a0415	-0.0142832
109	0x3e2b8bf3	0.16752605
110	0x3e32a179	0.1744441
111	0xbcb2ecd8	-0.021841452
112	0x3cabd4d8	0.020975515
113	0xbc816f1d	-0.015800053
114	0xbe20b8d9	-0.15695514
115	0x3e0f3f8a	0.13989082
116	0xbdb9d039	-0.090729184
117	0xbe43ca62	-0.19120172
118	0xbca85f41	-0.020553233
119	0x3d2ea706	0.042639755
120	0xbda05769	-0.07829172
121	0x3d58fa2b	0.052972954
122	0xbe243378	-0.16035259
123	0xbdc3ff9b	-0.09570237
124	0xbd0e2f91	-0.03471333
125	0x3d9ac868	0.07557756
126	0xbd6e0785	-0.05811264
127	0xbd02df78	-0.031951398
128	0xbd82bcba	-0.06383653
129	0x3d1b40b6	0.03790351
130	0x3d16a719	0.03678045
131	0x3c5f815b	0.013641681
132	0x3e21bd56	0.15794882
133	0x3e5aac04	0.21354681
134	0x3d75e71e	0.060034864
135	0xbdd79b61	-0.10527683
136	0x3e552d0b	0.20817964
137	0x3e40af8d	0.18816967
138	0x3dd19258	0.10232991
139	0xbd690673	-0.056890916
140	0xbc0e14ea	-0.0086719785
141	0x3cdb18aa	0.02674516
142	0xbe622d07	-0.22087489
143	0x3e5eb5d7	0.21749054
144	0xbe2ed431	-0.17073132
145	0xbe3a7b11	-0.18211009
146	0xbdd23f28	-0.10265952
147	0xbded80d0	-0.11596835
148	0xbc26ba19	-0.010176205
149	0x3cda98e3	0.02668423
150	0xbd931cb2	-0.071832076
151	0xbb88ac46	-0.004170927
152	0xbe01dbed	-0.12681551
153	0xbd6fce12	-0.058546133
154	0xbdcee0fe	-0.101015076
155	0xbd83baff	-0.06432151
156	0xbe056405	-0.13026436
157	0xbcafdb5c	-0.021466903
158	0xbc31de8a	-0.01085628
159	0xbd8bc558	-0.0682475
160	0xbbd72709	-0.0065659327
161	0x3d4a7e53	0.04943688
162	0x3d46c9e4	0.04853238
163	0xbe1c2143	-0.15247063
164	0x3cd4fa2c	0.025998197
165	0x3dda7abd	0.10667942
166	0x3e5c8157	0.21533714
167	0xbca97ecb	-0.020690342
168	0xbd095016	-0.03352364
169	0xbd70d339	-0.058795188
170	0x3e0ab01e	0.13543746
171	0xbe5e7258	-0.21723306
172	0xbe816295	-0.25270525
173	0xbdce0586	-0.10059647
174	0x3d4b3737	0.049613204
175	0xbd66eb75	-0.056376893
176	0xbd37262f	-0.04471415
177	0xbdf823c1	-0.121161945
178	0xbd28b564	-0.041188613
179	0x3c306573	0.010766375
180	0x3d6febbd	0.058574427
181	0x3d4260ed	0.047455717
182	0xbdf694d6	-0.12040107
183	0xbda29f0d	-0.07940493
184	0xbd881d39	-0.06646199
185	0xbd9849a8	-0.07435924
186	0xbcdcc13a	-0.026947606
187	0x3d2a9b43	0.041651975
188	0xbc3343e7	-0.010941482
189	0xbc7691d6	-0.015049418
190	0x3c6658d2	0.014059262
191	0xbd0cfa17	-0.03441819
192	0x3d2b13f6	0.041767083
193	0x3de05cf1	0.10955227
194	0x3e1874b6	0.14888272
195	0x3c3b3ad2	0.011427598
196	0x3ccaf634	0.024775602
197	0xbdf4ee85	-0.119595565
198	0x3e228e84	0.15874678
199	0xbe12c4ac	-0.14332837
200	0xbde6373f	-0.11241006
201	0x3dce1c55	0.10063998
202	0x3dab7ca4	0.08373383
203	0xbdbdc66a	-0.0926636
204	0xbdfe6350	-0.12421286
205	0xbd70156c	-0.05861418
206	0x3ba8e8dc	0.005154712
207	0x3d91c0c3	0.071168445
208	0x3e0d2eab	0.13787334
209	0x3e196b80	0.14982414
210	0xbce80f66	-0.028327655
211	0x3d3e22d0	0.04641992
212	0x3ca5da45	0.02024568
213	0x3d7c1572	0.06154389
214	0x3d389f20	0.04507363
215	0x3db98a0d	0.09059534
216	0x3d46b21e	0.04850971
217	0x3d55e7ac	0.052222893
218	0x3d869e8f	0.065732114
219	0x3d3026e7	0.04300585
220	0x3d789985	0.060693283
221	0x3e90fc32	0.2831741
222	0x3d0b6e1e	0.034040563
223	0x3dca40a5	0.09875611
224	0x3e3fdb55	0.18736012
225	0x3a83c28c	0.0010052486
226	0x3d8ffe02	0.0703087
227	0xbdaa9fed	-0.08331285
228	0x3d56c95a	0.052438118
229	0x3bfab99f	0.0076515223
230	0x3d34cb11	0.04413897
231	0xbe1ae368	-0.15125811
232	0xbe0d3b3c	-0.13792127
233	0x3ca36519	0.019945668
234	0x3ba9ef95	0.005186031
235	0x3bf1c9df	0.0073788012
236	0x3df2e264	0.11859587
237	0x3d4af857	0.04955324
238	0x3dfbe236	0.12299006
239	0x3dbefeb3	0.09325924
240	0x3dc3023c	0.095219105
241	0x3dcb4094	0.09924427
242	0x3e0debe6	0.1385952
243	0x3c8026db	0.015643528
244	0x3d15f99b	0.036614995
245	0x3dac958d	0.08426962
246	0xbe063ffe	-0.13110349
247	0x3b6f7f10	0.003654424
248	0x3e6ecab3	0.23319511
249	0x3ecbb95c	0.39789855
250	0x3dac3ef7	0.08410447
251	0x3c24e1c1	0.01006359
252	0xbba587be	-0.005051582
253	0xbd588e05	-0.052869815
254	0x3cac4df4	0.021033265
255	0xbded8e32	-0.11599387

1.bias f4 [256]
0	0xbc57b9ca	-0.013166854
1	0x3cf6cde7	0.030127479
2	0xbdf04cbc	-0.11733386
3	0x3e223a19	0.15842475
4	0xbc420e1e	-0.011844186
5	0xbb0f0f10	-0.0021829046
6	0xbc12aa96	-0.008951804
7	0xbc2fcdac	-0.010730188
8	0xbd6fa669	-0.05850831
9	0xbd20d942	-0.039269693
10	0xbd990dc3	-0.07473328
11	0x3e281e2c	0.1641776
12	0x3d746e81	0.059675697
13	0xbda3899f	-0.079852335
14	0x3e617a41	0.22019292
15	0x3d244085	0.040100593
16	0xbdae16c6	-0.085004374
17	0x3e2dd182	0.16974452
18	0x3d10ce44	0.03535296
19	0xbe6d4e59	-0.23174419
20	0x3e5b01b2	0.21387365
21	0xbd27f8db	-0.04100881
22	0xbcc912b9	-0.02454506
23	0xbe0dbbd2	-0.13841179
24	0xbd188ef4	-0.037245706
25	0xbbc8a54e	-0.0061232215
26	0xbc0084f7	-0.007844201
27	0x3bb82988	0.0056201853
28	0x3dcadf32	0.099058524
29	0x3e123f34	0.14281923
30	0x3d6bf76e	0.057609014
31	0x3ddb8158	0.1071803
32	0xbd49eaf7	-0.049296346
33	0x3d54243e	0.051792376
34	0xbdf731ff	-0.12070083
35	0x3c655884	0.013998155
36	0x3dd05e13	0.10174193
37	0x3e434d9e	0.19072577
38	0x3cc02d96	0.023459237
39	0x3db8d3b2	0.09024753
40	0x3de74938	0.11293262
41	0xbdbf36a9	-0.093365975
42	0xbd2293fe	-0.039691918
43	0xbd04b5b2	-0.03239984
44	0x3ce652e6	0.0281157
45	0x3ca84587	0.020540966
46	0xbdd7cea2	-0.10537459
47	0x3c593503	0.013257268
48	0x3b862039	0.0040931967
49	0xba3e9d7c	-0.0007271392
50	0xbdfc4aab	-0.12318929
51	0x3e886cbe	0.26645464
52	0xbc5197d5	-0.012792547
53	0x3d066eab	0.032820385
54	0xbdb14c36	-0.08657114
55	0x3ca1e466	0.01976223
56	0xbd17e335	-0.037081916
57	0x3ce3b095	0.027794162
58	0xbda5bacb	-0.080922686
59	0xbe0a90fd	-0.13531871
60	0x3ca66877	0.020313485
61	0xbbb55720	-0.0055340677
62	0xbd5b1f41	-0.053496603
63	0x3d2cd838	0.04219839
64	0x3e28197c	0.16415972
65	0xbb4bfd99	-0.0031126498
66	0x3cce7069	0.025200086
67	0x3d61ca2b	0.055124443
68	0xbdf844cc	-0.12122497
69	0xbd1eed27	-0.038800385
70	0x3dc9ca60	0.09853053
71	0x3e46fa2c	0.1943137
72	0x3e22f442	0.1591349
73	0xbc1833e3	-0.0092897145
74	0x3e02405d	0.12719865
75	0x3db61991	0.08891595
76	0x3e2abdb8	0.16673934
77	0x3dd1de3b	0.10247465
78	0x3c277062	0.010219665
79	0x3b19f1c0	0.0023490041
80	0x3dec29ee	0.11531435
81	0x3dc09bce	0.094047174
82	0xbc88db0f	-0.016706018
83	0xbb92d4f1	-0.004480951
84	0x3ccf438b	0.025300762
85	0x3e15d515	0.14632066
86	0xbb4de86c	-0.0031419052
87	0xbd5eb887	-0.054375198
88	0x3d8fa5c4	0.07014039
89	0xbe07380a	-0.13204971
90	0x3d53ad45	0.051678915
91	0x3db4a17b	0.088198625
92	0xbb87ca1a	-0.0041439654
93	0xbc393c83	-0.011305931
94	0xbd9f319c	-0.07773134
95	0xbd033e70	-0.032041967
96	0x3ddb17c0	0.10697889
97	0xbdf9f5ad	-0.12205062
98	0x3de113a8	0.10990077
99	0x3e2ffd68	0.1718651
100	0xbc09c04e	-0.008407665
101	0xbe00b674	-0.125696
102	0x3e20f59e	0.15718696
103	0x3e35eff1	0.17767312
104	0xbdd3bffc	-0.103393525
105	0xbddf6d63	-0.10909536
106	0x3d8da08b	0.06915387
107	0xbcfb21c1	-0.030655744
108	0xbd882d0f	-0.06649219
109	0xbc496b78	-0.012293689
110	0x3e2d4899	0.16922225
111	0xbc9b4db4	-0.01895795
112	0x3e091715	0.13387711
113	0xbdd2456f	-0.1026715
114	0x3d032f14	0.03202732
115	0x3e1a414a	0.15063968
116	0xbd3de130	-0.046357334
117	0xbcfb4304	-0.030671604
118	0x3cd8ac9d	0.026449496
119	0x3c0a5abd	0.008444485
120	0xbd7d310e	-0.06181436
121	0x3d2577e9	0.04039756
122	0x3da08ec3	0.0783973
123	0xbd681808	-0.056663543
124	0x3d482d53	0.04887135
125	0x3e1b8b7e	0.15189931
126	0x3db22289	0.08697993
127	0x3d093c04	0.0335045
128	0xbc8fd0bc	-0.017555587
129	0x3e3cae29	0.18425812
130	0xbd984e95	-0.07436863
131	0xbd1d7641	-0.038442854
132	0x3cea8632	0.028628442
133	0xbdf4a651	-0.11945785
134	0xbe3f136b	-0.18659751
135	0x3e6ff387	0.23432742
136	0x3ccc1f25	0.024917195
137	0x3c8f0ff7	0.017463667
138	0xbc8f3944	-0.017483361
139	0x3e00f06c	0.12591714
140	0x3d7f5f84	0.06234695
141	0xbcef504e	-0.029213097
142	0xbbdd7467	-0.006758261
143	0x3c0e144e	0.008671833
144	0x3e806873	0.25079688
145	0xbd15244f	-0.03641158
146	0xbd1f7300	-0.038928032
147	0xbd3b1645	-0.045675535
148	0xbddb3559	-0.10703535
149	0x3dd213bb	0.102576695
150	0x3cb41668	0.02198334
151	0xbdb1e195	-0.086856045
152	0xba061bb1	-0.00051158207
153	0xbce7957b	-0.02826952
154	0x3d607443	0.054798376
155	0xbdab540f	-0.08365642
156	0x3d8427bf	0.064528935
157	0xbda35706	-0.07975583
158	0x3e299903	0.16562276
159	0xbc587fb4	-0.013214041
160	0xbde1a3cb	-0.11017569
161	0xbd64cacb	-0.05585746
162	0xbb81c697	-0.0039604413
163	0x3e01342e	0.12617561
164	0x3cc70ebd	0.02429902
165	0xbcf67b93	-0.030088222
166	0xbd17aaf1	-0.037028257
167	0x3d245331	0.0401184
168	0x3dd20946	0.10255675
169	0x3dc0005d	0.09375069
170	0xbdfc6c27	-0.12325316
171	0xbe315d53	-0.17320757
172	0x3c862aed	0.01637789
173	0xbd8cda64	-0.06877592
174	0xbd93955b	-0.07206222
175	0x3d2db9f7	0.042413678
176	0x3e06c95c	0.1316275
177	0x3e015dad	0.1263339
178	0x3de9400a	0.113891676
179	0xbda75d77	-0.08172124
180	0x3eae5ead	0.34056607
181	0xbc510f09	-0.012759932
182	0x3deee433	0.11664619
183	0x3de5f980	0.11229229
184	0x3d826c2f	0.06368291
185	0x3d1e29f4	0.03861423
186	0x3d77839f	0.060428258
187	0xbe032c5a	-0.12809888
188	0xbcf0d13f	-0.029396651
189	0xbdd6a572	-0.10480775
190	0xbd91184a	-0.07084711
191	0xbdf66367	-0.12030678
192	0xbdd7ac7c	-0.10530946
193	0x3e13d928	0.14438307
194	0x3cf32688	0.02968146
195	0x3c844159	0.016144441
196	0x3d901b77	0.070364885
197	0x3cdf3546	0.027247082
198	0x3d322d2c	0.04350011
199	0xbd5e774d	-0.054312993
200	0xbcaf39b7	-0.021389825
201	0x3c29da64	0.01036701
202	0xbc385234	-0.0112500675
203	0xbd1eca70	-0.03876728
204	0x3e15366d	0.14571543
205	0x3d92bf9d	0.071654536
206	0x3dd56ff9	0.10421748
207	0x3d25bbcd	0.040462304
208	0xbe4e8065	-0.20166166
209	0x3c136b2a	0.008997718
210	0xbd8c43f0	-0.068488955
211	0xbd5fc41f	-0.054630395
212	0x3de4081f	0.111343615
213	0xbc8a6551	-0.016894015
214	0x3c3b46e6	0.011430478
215	0xbdc00f04	-0.09377864
216	0x3d9d600e	0.076843366
217	0xbc6cef23	-0.0144613115
218	0xbb9f9e82	-0.0048711905
219	0x3e8ee49e	0.27908796
220	0xbd762015	-0.06008919
221	0x3db8cb74	0.090231806
222	0x3da81f53	0.082090996
223	0x3e853f0d	0.26024666
224	0x3df1efb0	0.11813295
225	0xbcfb665f	-0.030688463
226	0x3d2cbe74	0.042173818
227	0x3d89ba7d	0.06725023
228	0x3ce93a3d	0.028470153
229	0xbe3c261a	-0.1837391
230	0x3cc34a8f	0.023839263
231	0x3d7ba425	0.061435837
232	0x3e0a7442	0.13520911
233	0xb90b77c6	-0.00013300692
234	0x3e459e9f	0.1929879
235	0xbd2313f6	-0.039813958
236	0xbdf96d03	-0.121789955
237	0xbda00341	-0.07813121
238	0x3d12f906	0.03588202
239	0x3c9a98fd	0.018871779
240	0x3cc8ef8a	0.024528284
241	0x3d6db4ec	0.05803387
242	0xbd8e0295	-0.06934086
243	0xbb95f5b2	-0.0045764083
244	0xbdaeec4a	-0.08541162
245	0x3d868034	0.065674216
246	0x3dbe9db7	0.093074255
247	0xbe0f2da4	-0.13982254
248	0xbde95792	-0.11393656
249	0x3d57955f	0.052632686
250	0x3d65091f	0.0559169
251	0x3e1fe27f	0.15613745
252	0x3e325e2f	0.1741874
253	0x3e1dc246	0.1540614
254	0x3d8804da	0.0664155
255	0x3d888ae2	0.06667115

3.weight f4 [10, 256]
0	0x3e063263	0.13105159
1	0x3a71c0b2	0.0009222134
2	0x3db51ccc	0.08843383
3	0xbdf5cfc2	-0.12002517
4	0xbcc432b6	-0.023949962
5	0x3e092901	0.13394548
6	0xbeddf6e0	-0.43352413
7	0x3d0844fd	0.033268917
8	0x3e254487	0.16139422
9	0x3ce10dcf	0.027472405
10	0x3e959701	0.2921677
11	0xbe5a2ddd	-0.21306558
12	0x3e3977a9	0.18112053
13	0x3dd39538	0.103311956
14	0xbe5be53f	-0.21474169
15	0x3b9c59ed	0.004771462
16	0x3d370ece	0.044691853
17	0x3e8c73be	0.27432054
18	0xbdb95cd3	-0.09050908
19	0x3e1cbe71	0.15307023
20	0xbf1a66b4	-0.6031296
21	0xbe127692	-0.14303043
22	0xbca084ed	-0.019594634
23	0x3e003dfb	0.12523644
24	0xbf2f801a	-0.6855484
25	0x3da701cc	0.081546396
26	0xbcdd8b22	-0.027043883
27	0xbe96b4b7	-0.2943475
28	0x3e3af6d9	0.18258227
29	0xbe9c9a4b	-0.30586466
30	0x3e291284	0.1651097
31	0x3e0f36da	0.13985768
32	0xbe89cae3	-0.26912603
33	0x3d73b505	0.059498806
34	0x3db3ec31	0.08785284
35	0xbe3bc0d9	-0.18335284
36	0x3ddad2b6	0.10684721
37	0xbf323aff	-0.6962127
38	0x3e8ee6d5	0.27910486
39	0x3de81345	0.113318
40	0xbe6194f1	-0.22029473
41	0xbf449aba	-0.76798594
42	0xbdbeaabc	-0.09309909
43	0xbd82a6c5	-0.06379465
44	0x3de824dd	0.11335156
45	0x3e1864b6	0.14882168
46	0x3d7ba8d9	0.061440323
47	0xbdf28430	-0.11841619
48	0x3d841fad	0.06451354
49	0xbd1eed19	-0.038800333
50	0xbd425f8f	-0.047454413
51	0xbe0940cd	-0.13403626
52	0x3df2914f	0.11844122
53	0xbe117023	-0.14202933
54	0xbec38b72	-0.38192326
55	0x3da22ab4	0.07918301
56	0x3d4eadf8	0.05045888
57	0xbc554cb8	-0.013018779
58	0xbf24f680	-0.6443863
59	0x3e95889e	0.29205793
60	0xbdcb7259	-0.099339195
61	0xbc8e68b7	-0.017383916
62	0x3e1422b6	0.14466366
63	0xbd2b15f7	-0.041768994
64	0xbe0ef6aa	-0.13961282
65	0x3af88181	0.0018959494
66	0xbe561af0	-0.20908713
67	0x3e50cb5b	0.20390074
68	0xbdc20eea	-0.09475501
69	0xbcf7974f	-0.030223517
70	0x3d9c4dfc	0.07632062
71	0x3e523c86	0.205309
72	0xbe385955	-0.18002827
73	0xbead25a8	-0.33817792
74	0x3dfa88f5	0.12233154
75	0xbd563275	-0.052294213
76	0xbf01b00a	-0.5065924
77	0xbd60a5e6	-0.054845713
78	0x3dcb303f	0.099213116
79	0x3dfda702	0.1238537
80	0xbeb45522	-0.352212
81	0x3d682980	0.056680202
82	0xbea274bf	-0.31729695
83	0x3d059cae	0.032620125
84	0x3e16009f	0.14648674
85	0x3df2a290	0.118474126
86	0xbe8160d1	-0.25269178
87	0x3d413d64	0.047177687
88	0xbd648e4b	-0.055799764
89	0xbec20f54	-0.3790232
90	0x3e7e6663	0.24843745
91	0xbe455e07	-0.1927415
92	0x3e04434a	0.12916294
93	0x3d851a2e	0.06499134
94	0xbe685c10	-0.22691369
95	0xbde0cb71	-0.10976303
96	0x3d760927	0.060067322
97	0xbf24770a	-0.6424414
98	0xbeb6713c	-0.35633266
99	0xbebbd48b	-0.36685595
100	0x3d8dd27d	0.06924913
101	0x3e406d3f	0.18791674
102	0xbf2d1245	-0.67606
103	0x3e9914d4	0.29898703
104	0x3c4c4838	0.01246839
105	0x3e0be941	0.13663198
106	0xbeee484a	-0.46539527
107	0xbda522a0	-0.08063245
108	0x3e011630	0.1260612
109	0xbe7b1592	-0.24519947
110	0xbccdf065	-0.025139043
111	0x3e42a4a7	0.19008122
112	0xbef1de3f	-0.47239873
113	0xbc5e37bd	-0.013563094
114	0xbf179fd7	-0.5922827
115	0x3e192212	0.14954403
116	0xbddf642b	-0.109077774
117	0xbc524ef4	-0.012836207
118	0xbdac80b1	-0.084229834
119	0x3e32d058	0.1746229
120	0x3e2579d2	0.16159752
121	0xbeed399f	-0.46333024
122	0x3e065683	0.13118939
123	0x3e7164e1	0.23573638
124	0xbd6cf766	-0.057853125
125	0xbdf2e821	-0.11860681
126	0x3e5dc541	0.21657278
127	0x3e2d6eda	0.16936818
128	0x3e62512c	0.22101277
129	0x3dff624c	0.124699205
130	0x3e8f27d6	0.2796008
131	0xbb646acb	-0.0034853693
132	0x3e040d21	0.12895633
133	0x3d2c69d1	0.042093102
134	0xbef4f8ac	-0.47845972
135	0x3de1c996	0.110247776
136	0xbf86aabd	-1.0520855
137	0x3eb2db23	0.34932813
138	0x3d2d542b	0.042316597
139	0xbc0a7cbd	-0.0084525915
140	0xbec6ae47	-0.38804838
141	0xbe4b0401	-0.19825746
142	0x3d6842de	0.056704395
143	0x3d2b7974	0.041863874
144	0xbe11e00d	-0.14245625
145	0x3dcdd198	0.100497425
146	0x3c694771	0.014238224
147	0x3e188321	0.14893772
148	0x3d263a84	0.04058315
149	0x3e32f35a	0.17475644
150	0x3e50e676	0.20400414
151	0x3e1cc60b	0.15309922
152	0x3ddbfa00	0.10741043
153	0x3ddf5b68	0.10906106
154	0xbf3550b4	-0.7082627
155	0x3e1ca2ae	0.15296432
156	0x3cd5ce6e	0.02609941
157	0x3da97356	0.08273952
158	0xbb07daac	-0.0020729704
159	0x3d4cdc03	0.050014507
160	0xbcadbf06	-0.021209251
161	0xbeba68fc	-0.36408222
162	0xbd5087dc	-0.050910816
163	0xbd82c2ee	-0.06384836
164	0x3d3c7c7e	0.046017163
165	0x3ce32095	0.027725497
166	0x3e42ae44	0.1901179
167	0x3d06cb5d	0.032908786
168	0xbce1e20b	-0.027573606
169	0x3e429870	0.19003463
170	0x3d3d2fcd	0.046188165
171	0x3e128835	0.14309771
172	0xbe30ffd5	-0.17285092
173	0xbf08a150	-0.53371143
174	0x3d3fc2e4	0.04681672
175	0xbf415885	-0.75525695
176	0xbf00151c	-0.5003221
177	0xbf0da619	-0.5533157
178	0xbedc0de3	-0.42979345
179	0x3e312159	0.17297877
180	0xbe603d6b	-0.21898429
181	0xbd0299dc	-0.031885013
182	0x3dde24fc	0.10846898
183	0x3ddf5a04	0.10905841
184	0x3e542eb2	0.20720938
185	0x3e360e9a	0.17779008
186	0x3dca4764	0.09876898
187	0x3de32240	0.11090517
188	0x3e8d2dcb	0.27574
189	0xbc58fd2f	-0.013243957
190	0xbdb8a85a	-0.090164855
191	0x3d9d05bc	0.07667109
192	0x3e6e78a6	0.23288211
193	0xbede12b7	-0.43373653
194	0x3e5b1ff1	0.21398903
195	0xbf09d949	-0.53847176
196	0x3db2b639	0.087261625
197	0xbe89f6db	-0.26946148
198	0x3db4dfd0	0.08831751
199	0xbd541e84	-0.051786914
200	0xbe4beb87	-0.19914065
201	0x3dee425f	0.11633753
202	0x3d6978f5	0.05700012
203	0x3d0168c8	0.031594068
204	0xbf2d6db7	-0.67745537
205	0xbecc73c9	-0.39932087
206	0xbed3be6d	-0.4135622
207	0xbeb12a17	-0.34602425
208	0x3c9ee715	0.019397298
209	0xbe15353a	-0.14571086
210	0x3dd896fd	0.10575674
211	0xbf39b291	-0.72538096
212	0xbd2ce22f	-0.042207893
213	0x3e3d0d82	0.18462184
214	0x3a892dfa	0.0010465973
215	0x3e0d26da	0.13784352
216	0xbe16e175	-0.14734443
217	0xbe3d6eb7	-0.18499266
218	0x3df4b683	0.11948874
219	0x3ea261c3	0.3171521
220	0x3e7008ad	0.2344081
221	0xbd078bf5	-0.033092458
222	0x3e1210c0	0.14264202
223	0x3d45eba3	0.048320424
224	0xbe5400d8	-0.20703447
225	0xbe079667	-0.13240968
226	0xbf2cb384	-0.6746142
227	0xbecce03d	-0.4001483
228	0xbf1a41ac	-0.6025646
229	0x3d1f0e67	0.038832095
230	0xbe52a3c4	-0.20570284
231	0xbe89e44c	-0.2693199
232	0xbdb7555e	-0.089518294
233	0xbe4584df	-0.19288968
234	0xbec2f5f8	-0.38078284
235	0xbd494189	-0.049134765
236	0x3db8f7a6	0.0903161
237	0xbe2c8db6	-0.16850933
238	0xbf1a99ed	-0.6039112
239	0x3dc267db	0.09492465
240	0x3da5ff2b	0.0810531
241	0x3eca3c6f	0.39499232
242	0xbe2c3ec4	-0.16820818
243	0x3ca29d2e	0.01985034
244	0xbc0ce459	-0.008599364
245	0x3d5bf759	0.053702686
246	0xbe4a56e3	-0.19759707
247	0x3da8c78f	0.08241188
248	0xbeae4471	-0.34036592
249	0xbea14184	-0.31495297
250	0xbf17eb55	-0.59343463
251	0xbd095a44	-0.03353335
252	0x3d3caf4a	0.046065606
253	0xbe9898d8	-0.2980411
254	0xbd0817c7	-0.0332258
255	0xbebfc221	-0.37452796

3.bias f4 [10]
0	0xbd8aee2c	-0.06783709
1	0xbc69a7d2	-0.014261203
2	0xbd103137	-0.035203185
3	0xbdb3ad0f	-0.08773243
4	0x3d97c1b2	0.07409991
5	0x3cbfc4cb	0.023409268
6	0x3ce46bfe	0.027883526
7	0xbe1f9ce0	-0.15587187
8	0x3e3d9c37	0.18516622
9	0xbcef3ab3	-0.029202795
